module @jit_testcase {
  func.func public @main() -> tensor<i1> {
    %0 = call @inputs() : () -> tensor<2x5x5xf32>
    %1 = call @expected() : () -> tensor<2x5x5xf32>
    %2 = stablehlo.constant dense<1> : tensor<i32>
    %3 = stablehlo.constant dense<2> : tensor<i32>
    %4 = stablehlo.constant dense<5> : tensor<i32>
    %5 = stablehlo.custom_call @lapack_spotrf(%2, %3, %4, %0) {api_version = 2 : i32, operand_layouts = [dense<> : tensor<0xindex>, dense<> : tensor<0xindex>, dense<> : tensor<0xindex>, dense<[1, 2, 0]> : tensor<3xindex>], output_operand_aliases = [#stablehlo.output_operand_alias<output_tuple_indices = [0], operand_index = 3, operand_tuple_indices = []>], result_layouts = [dense<[1, 2, 0]> : tensor<3xindex>, dense<0> : tensor<1xindex>]} : (tensor<i32>, tensor<i32>, tensor<i32>, tensor<2x5x5xf32>) -> tuple<tensor<2x5x5xf32>, tensor<2xi32>>
    %6 = stablehlo.get_tuple_element %5[0] : (tuple<tensor<2x5x5xf32>, tensor<2xi32>>) -> tensor<2x5x5xf32>
    %7 = stablehlo.get_tuple_element %5[1] : (tuple<tensor<2x5x5xf32>, tensor<2xi32>>) -> tensor<2xi32>
    %8 = stablehlo.constant dense<0> : tensor<i32>
    %9 = stablehlo.broadcast_in_dim %8, dims = [] : (tensor<i32>) -> tensor<2xi32>
    %10 = stablehlo.compare  EQ, %7, %9,  SIGNED : (tensor<2xi32>, tensor<2xi32>) -> tensor<2xi1>
    %11 = stablehlo.broadcast_in_dim %10, dims = [0] : (tensor<2xi1>) -> tensor<2x1x1xi1>
    %12 = stablehlo.constant dense<0x7FC00000> : tensor<f32>
    %13 = stablehlo.broadcast_in_dim %12, dims = [] : (tensor<f32>) -> tensor<2x5x5xf32>
    %14 = stablehlo.broadcast_in_dim %11, dims = [0, 1, 2] : (tensor<2x1x1xi1>) -> tensor<2x5x5xi1>
    %15 = stablehlo.select %14, %6, %13 : tensor<2x5x5xi1>, tensor<2x5x5xf32>
    %16 = stablehlo.custom_call @check.eq(%15, %1) : (tensor<2x5x5xf32>, tensor<2x5x5xf32>) -> tensor<i1>
    return %16 : tensor<i1>
  }
  func.func private @inputs() -> tensor<2x5x5xf32> {
    %0 = stablehlo.constant dense<[[[… > : tensor<2x5x5xf32>
    return %0 : tensor<2x5x5xf32>
  }
  func.func private @expected() -> tensor<2x5x5xf32> {
    %0 = stablehlo.constant dense<[[[… > : tensor<2x5x5xf32>
    return %0 : tensor<2x5x5xf32>
  }
}
